…
lab":{"base_uri":"https://localhost:8080/"},"executionInfo":{"status":"ok","timestamp":1650370033518,"user_tz":-240,"elapsed":366,"user":{"displayName":"","userId":""}}},"cell_type":"code","source":["model = neural_model()\n","print(model.summary())"],"execution_count":45,"outputs":[{"output_type":"stream","name":"stdout","text":["Model: \"sequential_6\"\n","_________________________________________________________________\n"," Layer (type)                Output Shape              Param #   \n","=================================================================\n"," conv2d_24 (Conv2D)          (None, 28, 28, 60)        1560      \n","                                                                 \n"," conv2d_25 (Conv2D)          (None, 24, 24, 60)        90060     \n","                                                                 \n"," max_pooling2d_12 (MaxPoolin  (None, 12, 12, 60)       0         \n"," g2D)                                                            \n","                                                                 \n"," conv2d_26 (Conv2D)          (None, 10, 10, 30)        16230     \n","                                                                 \n"," conv2d_27 (Conv2D)          (None, 8, 8, 30)          8130      \n","                                                                 \n"," max_pooling2d_13 (MaxPoolin  (None, 4, 4, 30)         0         \n"," g2D)                                                            \n","                                                                 \n"," flatten_6 (Flatten)         (None, 480)               0         \n","                                                                 \n"," dense_12 (Dense)            (None, 500)               240500    \n","                                                                 \n"," dropout_6 (Dropout)         (None, 500)               0         \n","                                                                 \n"," dense_13 (Dense)            (None, 43)                21543     \n","                                                                 \n","=================================================================\n","Total params: 378,023\n","Trainable params: 378,023\n","Non-trainable params: 0\n","_________________________________________________________________\n","None\n"]},{"output_type":"stream","name":"stderr","text":["/usr/local/lib/python3.7/dist-package
…
